model/ptq/test.tflite (tflite, 126904 bytes, 8 tensors)

sequential/dense_2/Tensordot/MatMul i1 [2, 128] scale=0.0017237272 zero_point=0
000000 3c 06 55 c9 56 94 c7 ed c2 9f 51 1a 26 d3 61 3e
       0.10342363 0.010342363 0.14651681 -0.094804995 0.14824054 -0.18616253 -0.09825245 -0.032750815 -0.10687108 -0.16720153 0.1396219 0.044816907 0.06550163 -0.07756773 0.16720153 0.10687108
000010 14 0a 4d 56 ad e6 bf d0 3d 63 ad 2b fc ea 55 4b
       0.034474544 0.017237272 0.132727 0.14824054 -0.14306936 -0.044816907 -0.11204227 -0.082738906 0.10514736 0.17064899 -0.14306936 0.07412027 -0.006894909 -0.037922 0.14651681 0.12927954
000020 ea 24 83 d1 59 00 97 2c 6d a3 00 c3 ff f2 dd e8
       -0.037922 0.06205418 -0.2154659 -0.08101518 0.15341172 0.0 -0.18099135 0.075844 0.18788627 -0.16030663 0.0 -0.10514736 -0.0017237272 -0.024132181 -0.06033045 -0.041369453
000030 7a a1 37 1a 72 e0 40 5d b8 fb a1 4b 4d 14 42 c3
       0.21029472 -0.16375409 0.094804995 0.044816907 0.1965049 -0.05515927 0.11031854 0.16030663 -0.12410836 -0.008618636 -0.16375409 0.12927954 0.132727 0.034474544 0.113766 -0.10514736
000040 4b ff a9 79 65 20 62 d7 4e ed c5 e8 f8 d9 f1 0a
       0.12927954 -0.0017237272 -0.14996427 0.20857099 0.17409645 0.05515927 0.16892527 -0.07067282 0.13445072 -0.032750815 -0.1016999 -0.041369453 -0.013789818 -0.06722536 -0.025855908 0.017237272
000050 ee c3 b7 68 cc b4 bb 1e 6e 54 4d 32 04 55 2b 03
       -0.03102709 -0.10514736 -0.12583208 0.17926763 -0.089633815 -0.13100326 -0.11893718 0.051711816 0.18960999 0.1447931 0.132727 0.086186364 0.006894909 0.14651681 0.07412027 0.0051711816
000060 45 19 06 47 42 1d d7 8f d7 0c 63 f0 d2 4b 84 99
       0.11893718 0.043093182 0.010342363 0.12238463 0.113766 0.04998809 -0.07067282 -0.19478117 -0.07067282 0.020684727 0.17064899 -0.027579635 -0.07929145 0.12927954 -0.21374217 -0.17754391
000070 1e 02 6f fe fa a3 d5 4e c6 2a f1 a5 05 63 d6 11
       0.051711816 0.0034474544 0.19133373 -0.0034474544 -0.010342363 -0.16030663 -0.07412027 0.13445072 -0.09997618 0.07239655 -0.025855908 -0.15685917 0.008618636 0.17064899 -0.07239655 0.029303363
000080 3e 53 d8 41 29 00 17 5d ba b7 70 f8 73 bd ff 55
       0.10687108 0.14306936 -0.06894909 0.11204227 0.07067282 0.0 0.039645724 0.16030663 -0.1206609 -0.12583208 0.19305745 -0.013789818 0.19822863 -0.11548972 -0.0017237272 0.14651681
000090 f6 b3 2d d9 b4 a5 0e db de c5 90 43 c6 35 e8 64
       -0.017237272 -0.132727 0.07756773 -0.06722536 -0.13100326 -0.15685917 0.024132181 -0.06377791 -0.058606725 -0.1016999 -0.19305745 0.11548972 -0.09997618 0.091357544 -0.041369453 0.17237273
0000a0 3e 2a e8 16 8a b0 43 9f b4 9c 9e 9f 02 28 fe 42
       0.10687108 0.07239655 -0.041369453 0.037922 -0.2033998 -0.13789818 0.11548972 -0.16720153 -0.13100326 -0.17237273 -0.16892527 -0.16720153 0.0034474544 0.06894909 -0.0034474544 0.113766
0000b0 45 6b e2 e8 e0 3e 69 2c 1d ac b2 60 8e ad 41 56
       0.11893718 0.18443881 -0.051711816 -0.041369453 -0.05515927 0.10687108 0.18099135 0.075844 0.04998809 -0.1447931 -0.13445072 0.16547781 -0.1965049 -0.14306936 0.11204227 0.14824054
0000c0 0f 46 ca cf c8 91 49 f9 e6 da 0c 20 93 f8 16 9a
       0.025855908 0.1206609 -0.093081266 -0.084462635 -0.096528724 -0.19133373 0.12583208 -0.0120660905 -0.044816907 -0.06550163 0.020684727 0.05515927 -0.18788627 -0.013789818 0.037922 -0.17582017
0000d0 be ad f6 1c d3 eb 8d dd 55 c8 45 27 0a 6a 85 ee
       -0.113766 -0.14306936 -0.017237272 0.048264362 -0.07756773 -0.036198273 -0.19822863 -0.06033045 0.14651681 -0.096528724 0.11893718 0.06722536 0.017237272 0.18271509 -0.21201845 -0.03102709
0000e0 59 dc cc bd 77 e5 9f 19 7f 6d 30 1e 00 10 13 0e
       0.15341172 -0.06205418 -0.089633815 -0.11548972 0.20512354 -0.046540633 -0.16720153 0.043093182 0.21891336 0.18788627 0.082738906 0.051711816 0.0 0.027579635 0.032750815 0.024132181
0000f0 cd 77 17 6b 8b f3 be ba 72 cc be 9b fd ee 8e 9e
       -0.087910086 0.20512354 0.039645724 0.18443881 -0.20167609 -0.022408454 -0.113766 -0.1206609 0.1965049 -0.089633815 -0.113766 -0.17409645 -0.0051711816 -0.03102709 -0.1965049 -0.16892527

sequential/dense_1/BiasAdd/ReadVariableOp i1 [128] scale=7.484105e-05 zero_point=-9
000000 57 50 5e 80 61 87 8f 3b 97 96 5b 6f 55 90 63 56
       0.007184741 0.0066608535 0.0077086287 -0.008906085 0.007933152 -0.0083821975 -0.0077834697 0.0050891917 -0.007184741 -0.007259582 0.0074841054 0.008980926 0.007035059 -0.0077086287 0.008082834 0.0071099
000010 56 9d 61 64 85 99 84 8a 63 62 95 60 a8 a4 6a 5c
       0.0071099 -0.0067356946 0.007933152 0.008157675 -0.00853188 -0.007035059 -0.008606721 -0.008157675 0.008082834 0.008007993 -0.0073344233 0.007858311 -0.005912443 -0.0062118075 0.008606721 0.0075589465
000020 fb 5c 91 8b 5c a8 96 c8 5d 99 9c 98 9e 0f 83 36
       0.0002993642 0.0075589465 -0.0076337876 -0.008082834 0.0075589465 -0.005912443 -0.007259582 -0.0035175295 0.0076337876 -0.007035059 -0.0068105357 -0.0071099 -0.0066608535 0.0017961853 -0.008681562 0.0047149863
000030 5a 8f 68 63 65 94 56 55 8c a0 8b 5b 70 ab 55 aa
       0.0074092643 -0.0077834697 0.008457039 0.008082834 0.008232516 -0.0074092643 0.0071099 0.007035059 -0.008007993 -0.006511172 -0.008082834 0.0074841054 0.009055767 -0.00568792 0.007035059 -0.005762761
000040 61 48 89 66 59 be 5f 92 62 90 8b 98 9b 90 19 a5
       0.007933152 0.0060621253 -0.008232516 0.008307357 0.0073344233 -0.00426594 0.0077834697 -0.0075589465 0.008007993 -0.0077086287 -0.008082834 -0.0071099 -0.0068853768 -0.0077086287 0.0025445959 -0.0061369664
000050 8b 92 86 5b 92 8c 96 5a 63 70 5a 62 5d 5f f2 a0
       -0.008082834 -0.0075589465 -0.008457039 0.0074841054 -0.0075589465 -0.008007993 -0.007259582 0.0074092643 0.008082834 0.009055767 0.0074092643 0.008007993 0.0076337876 0.0077834697 -0.00037420526 -0.006511172
000060 61 52 a6 57 56 5b 99 86 15 59 5f 91 8d 5e 83 88
       0.007933152 0.0068105357 -0.0060621253 0.007184741 0.0071099 0.0074841054 -0.007035059 -0.008457039 0.0022452315 0.0073344233 0.0077834697 -0.0076337876 -0.007933152 0.0077086287 -0.008681562 -0.008307357
000070 07 55 65 44 9d 93 9a 54 b2 7f 9d 95 62 65 93 ad
       0.0011974568 0.007035059 0.008232516 0.005762761 -0.0067356946 -0.0074841054 -0.006960218 0.006960218 -0.005164033 0.010178383 -0.0067356946 -0.0073344233 0.008007993 0.008232516 -0.0074841054 -0.0055382377

sequential/dense_1/Tensordot/MatMul i1 [128, 128] scale=0.0013740144 zero_point=0
000000 38 a8 22 46 8f cc 45 5e a7 1d 46 30 9a bb 02 0b
       0.076944806 -0.12091327 0.04671649 0.09618101 -0.15526363 -0.07144875 0.09480699 0.12915735 -0.12228728 0.039846417 0.09618101 0.06595269 -0.14014947 -0.09480699 0.0027480288 0.015114158
000010 19 5a 27 3d f0 1c f7 da f0 2c a8 ba ba 97 0f ed
       0.03435036 0.123661295 0.05358656 0.08381488 -0.02198423 0.038472403 -0.01236613 -0.052212548 -0.02198423 0.060456634 -0.12091327 -0.09618101 -0.09618101 -0.14427151 0.020610217 -0.026106274
000020 03 2f 53 04 97 eb 48 a7 19 4e 38 cf c8 9b c4 66
       0.004122043 0.064578675 0.1140432 0.0054960577 -0.14427151 -0.028854303 0.09892904 -0.12228728 0.03435036 0.10717312 0.076944806 -0.06732671 -0.076944806 -0.13877545 -0.08244087 0.14014947
000030 04 14 95 cc ba 24 6b e4 28 6e 57 df 62 ee cf 4c
       0.0054960577 0.02748029 -0.14701955 -0.07144875 -0.09618101 0.04946452 0.14701955 -0.038472403 0.05496058 0.15114158 0.11953925 -0.045342475 0.13465342 -0.02473226 -0.06732671 0.104425095
000040 23 28 bc 56 2e 5e 4d ef 0c 30 8a 0f 4d 44 42 94
       0.048090506 0.05496058 -0.09343298 0.11816524 0.06320466 0.12915735 0.10579911 -0.023358244 0.016488172 0.06595269 -0.16213371 0.020610217 0.10579911 0.09343298 0.09068495 -0.14839356
000050 e6 92 65 27 df 5b e4 18 1d a1 11 31 a8 34 b2 e0
       -0.035724375 -0.15114158 0.13877545 0.05358656 -0.045342475 0.12503532 -0.038472403 0.032976344 0.039846417 -0.13053137 0.023358244 0.06732671 -0.12091327 0.07144875 -0.10717312 -0.04396846
000060 e3 4c 18 a3 cf c8 35 a0 66 cc 41 c5 a3 a6 3f f8
       -0.039846417 0.104425095 0.032976344 -0.12778334 -0.06732671 -0.076944806 0.072822765 -0.13190538 0.14014947 -0.07144875 0.08931094 -0.081066854 -0.12778334 -0.123661295 0.08656291 -0.010992115
000070 d9 1c 2d bf 6a 5d f5 3e f7 53 0e eb ef fd e5 4d
       -0.05358656 0.038472403 0.061830647 -0.08931094 0.14564553 0.12778334 -0.015114158 0.085188895 -0.01236613 0.1140432 0.019236201 -0.028854303 -0.023358244 -0.004122043 -0.03709839 0.10579911
000080 16 5f 67 d8 8f d0 dd e7 13 a2 67 d1 23 38 17 c7
       0.030228317 0.13053137 0.14152348 -0.05496058 -0.15526363 -0.06595269 -0.048090506 -0.03435036 0.026106274 -0.12915735 0.14152348 -0.064578675 0.048090506 0.076944806 0.03160233 -0.07831882
000090 4a cc ec a5 34 e8 d5 95 ee 13 f8 58 e4 bd 38 36
       0.10167707 -0.07144875 -0.02748029 -0.12503532 0.07144875 -0.032976344 -0.05908262 -0.14701955 -0.02473226 0.026106274 -0.010992115 0.12091327 -0.038472403 -0.092058964 0.076944806 0.07419678
0000a0 a8 ca fd 63 ac c2 0f 22 3f 45 17 bd 21 cb 9d 6b
       -0.12091327 -0.07419678 -0.004122043 0.13602743 -0.11541721 -0.085188895 0.020610217 0.04671649 0.08656291 0.09480699 0.03160233 -0.092058964 0.045342475 -0.072822765 -0.13602743 0.14701955
0000b0 b8 d2 fb be 61 f7 15 31 dc b7 90 20 a4 c2 20 c6
       -0.09892904 -0.06320466 -0.0068700723 -0.09068495 0.1332794 -0.01236613 0.028854303 0.06732671 -0.04946452 -0.100303054 -0.15388961 0.04396846 -0.12640932 -0.085188895 0.04396846 -0.07969283
0000c0 5c a2 a4 ee 6e 3c 30 68 b5 fd 2d 1f 04 3b f6 8a
       0.12640932 -0.12915735 -0.12640932 -0.02473226 0.15114158 0.08244087 0.06595269 0.1428975 -0.10305108 -0.004122043 0.061830647 0.042594448 0.0054960577 0.081066854 -0.013740145 -0.16213371
0000d0 f7 a1 d3 da da a7 d4 d1 ee 0f 9e a6 dd e3 2a ff
       -0.01236613 -0.13053137 -0.061830647 -0.052212548 -0.052212548 -0.12228728 -0.060456634 -0.064578675 -0.02473226 0.020610217 -0.13465342 -0.123661295 -0.048090506 -0.039846417 0.057708606 -0.0013740144
0000e0 49 b8 92 47 df e9 5a 17 9b 16 97 ab 2b 42 fe c4
       0.100303054 -0.09892904 -0.15114158 0.09755503 -0.045342475 -0.03160233 0.123661295 0.03160233 -0.13877545 0.030228317 -0.14427151 -0.116791226 0.05908262 0.09068495 -0.0027480288 -0.08244087
0000f0 cc 63 e0 de 6f 36 c3 bb d0 ab 43 bb c4 4c 16 17
       -0.07144875 0.13602743 -0.04396846 -0.04671649 0.1525156 0.07419678 -0.08381488 -0.09480699 -0.06595269 -0.116791226 0.092058964 -0.09480699 -0.08244087 0.104425095 0.030228317 0.03160233

sequential/dense/BiasAdd/ReadVariableOp i1 [128] scale=0.00011194385 zero_point=-8
000000 b4 df 2b 41 9c 50 2b 36 b3 f2 43 34 a9 af b6 33
       -0.007612182 -0.0027985964 0.0057091364 0.008171901 -0.010298834 0.009851059 0.0057091364 0.006940519 -0.007724126 -0.0006716631 0.008395789 0.0067166314 -0.008843564 -0.008171901 -0.007388294 0.0066046873
000010 1d bb a8 4f a6 38 1a 7f 44 38 b4 32 c1 9c 21 4e
       0.0041419226 -0.006828575 -0.0089555085 0.009739115 -0.009179396 0.0071644066 0.003806091 0.015112421 0.008507733 0.0071644066 -0.007612182 0.0064927433 -0.006156912 -0.010298834 0.004589698 0.009627172
000020 a5 f6 de 28 aa 49 d8 fe b9 ab 35 d2 e6 34 2b 31
       -0.00929134 -0.0002238877 -0.0029105402 0.0053733047 -0.00873162 0.0090674525 -0.0035822033 0.0006716631 -0.0070524625 -0.008619676 0.006828575 -0.0042538666 -0.0020149893 0.0067166314 0.0057091364 0.0063807997
000030 38 27 bb bc 9d 39 fd 47 3b 4d c0 af c8 b9 35 c4
       0.0071644066 0.005261361 -0.006828575 -0.0067166314 -0.010186891 0.0072763506 0.0005597193 0.008843564 0.0075002383 0.009515228 -0.0062688556 -0.008171901 -0.0053733047 -0.0070524625 0.006828575 -0.0058210804
000040 40 e9 41 30 50 2c cc c8 ae b5 b2 dc 99 c0 18 ab
       0.008059957 -0.0016791578 0.008171901 0.0062688556 0.009851059 0.0058210804 -0.0049255295 -0.0053733047 -0.008283845 -0.0075002383 -0.00783607 -0.0031344278 -0.010634666 -0.0062688556 0.0035822033 -0.008619676
000050 55 b8 38 35 0c 35 f4 e1 43 92 e3 ae a6 b1 2d e5
       0.010410778 -0.0071644066 0.0071644066 0.006828575 0.0022388771 0.006828575 -0.0004477754 -0.0025747085 0.008395789 -0.011418273 -0.002350821 -0.008283845 -0.009179396 -0.007948014 0.005933024 -0.0021269333
000060 b6 06 ad 38 2c 30 20 be b0 42 c6 b9 3a af 3e 78
       -0.007388294 0.0015672139 -0.008395789 0.0071644066 0.0058210804 0.0062688556 0.0044777542 -0.0064927433 -0.008059957 0.008283845 -0.005597193 -0.0070524625 0.007388294 -0.008171901 0.00783607 0.014328813
000070 b3 1a b8 d2 13 34 4c 33 2c ae 35 80 bd 11 bf f5
       -0.007724126 0.003806091 -0.0071644066 -0.0042538666 0.003022484 0.0067166314 0.009403284 0.0066046873 0.0058210804 -0.008283845 0.006828575 -0.013433263 -0.0066046873 0.0027985964 -0.0063807997 -0.00033583154

sequential/dense/Tensordot/MatMul1 i1 [128, 128] scale=0.0013281597 zero_point=0
000000 43 0b aa 8f 2b 48 c7 e1 fd 66 39 0f d4 51 cb 07
       0.0889867 0.014609757 -0.11422174 -0.15008205 0.05711087 0.0956275 -0.0757051 -0.04117295 -0.0039844792 0.13547228 0.0757051 0.019922396 -0.058439028 0.10758094 -0.07039247 0.009297118
000010 96 3d fc 49 16 ab 17 1e f2 49 43 cf c9 d2 41 d9
       -0.14078493 0.08101774 -0.005312639 0.09695566 0.029219514 -0.112893574 0.030547673 0.039844792 -0.018594235 0.09695566 0.0889867 -0.06507982 -0.073048785 -0.061095346 0.086330384 -0.05179823
000020 c0 9d ca 52 cd b1 0c 8f 91 c0 92 45 5b 39 4d 96
       -0.08500222 -0.13148782 -0.07172062 0.10890909 -0.06773614 -0.10492462 0.015937917 -0.15008205 -0.14742573 -0.08500222 -0.14609757 0.09164302 0.120862536 0.0757051 0.1022683 -0.14078493
000030 e0 85 61 23 c5 a3 8d f1 cb 33 bf a2 f1 e9 e6 57
       -0.04250111 -0.16336365 0.12883149 0.046485588 -0.07836142 -0.123518854 -0.15273836 -0.019922396 -0.07039247 0.06773614 -0.086330384 -0.12484701 -0.019922396 -0.030547673 -0.034532152 0.11554989
000040 dd 31 26 1d 98 69 09 e5 ce 3f 55 33 fc 43 98 d0
       -0.046485588 0.06507982 0.05047007 0.038516633 -0.13812861 0.13945676 0.011953438 -0.03586031 -0.066407986 0.08367406 0.112893574 0.06773614 -0.005312639 0.0889867 -0.13812861 -0.06375167
000050 59 29 ec bf ef 0e 2e 62 59 de bb a8 0e fc 44 95
       0.11820621 0.054454546 -0.026563194 -0.086330384 -0.022578714 0.018594235 0.061095346 0.13015965 0.11820621 -0.04515743 -0.09164302 -0.116878055 0.018594235 -0.005312639 0.09031486 -0.14211309
000060 b3 5a 47 9e 51 c1 40 4d a8 8c 9f 45 ff 3a 6b ca
       -0.1022683 0.11953437 0.09429934 -0.13015965 0.10758094 -0.08367406 0.08500222 0.1022683 -0.116878055 -0.15406653 -0.12883149 0.09164302 -0.0013281597 0.07703327 0.14211309 -0.07172062
000070 96 b4 12 4c a5 60 b9 07 e4 1f 9d 85 ad 22 5d bf
       -0.14078493 -0.10094014 0.023906875 0.10094014 -0.120862536 0.12750334 -0.09429934 0.009297118 -0.03718847 0.04117295 -0.13148782 -0.16336365 -0.110237256 0.04515743 0.123518854 -0.086330384
000080 b9 44 da 3b 4f ef ab 92 33 b5 a6 29 ca 43 6f d8
       -0.09429934 0.09031486 -0.05047007 0.07836142 0.10492462 -0.022578714 -0.112893574 -0.14609757 0.06773614 -0.099611975 -0.11953437 0.054454546 -0.07172062 0.0889867 0.14742573 -0.053126387
000090 e3 fd d5 6f 26 4f ed 4c 01 11 1d 6f 9b e4 dc 6e
       -0.038516633 -0.0039844792 -0.05711087 0.14742573 0.05047007 0.10492462 -0.025235035 0.10094014 0.0013281597 0.022578714 0.038516633 0.14742573 -0.13414413 -0.03718847 -0.04781375 0.14609757
0000a0 a9 b2 61 f8 74 a3 54 12 dd 37 d3 0c d2 30 e0 2b
       -0.11554989 -0.10359646 0.12883149 -0.010625278 0.15406653 -0.123518854 0.11156542 0.023906875 -0.046485588 0.073048785 -0.059767187 0.015937917 -0.061095346 0.06375167 -0.04250111 0.05711087
0000b0 d6 d3 c4 ee 25 e7 24 01 41 0f c9 f4 a5 af 1b ab
       -0.05578271 -0.059767187 -0.079689585 -0.023906875 0.04914191 -0.033203993 0.04781375 0.0013281597 0.086330384 0.019922396 -0.073048785 -0.015937917 -0.120862536 -0.10758094 0.03586031 -0.112893574
0000c0 a8 41 4d 1c 72 19 1a 29 64 bc e3 69 93 3f cf 08
       -0.116878055 0.086330384 0.1022683 0.03718847 0.1514102 0.033203993 0.034532152 0.054454546 0.13281597 -0.09031486 -0.038516633 0.13945676 -0.14476942 0.08367406 -0.06507982 0.010625278
0000d0 95 fb 42 d6 05 f9 d4 a5 bd bb 65 26 f1 4e 35 c9
       -0.14211309 -0.0066407984 0.08765854 -0.05578271 0.0066407984 -0.009297118 -0.058439028 -0.120862536 -0.0889867 -0.09164302 0.13414413 0.05047007 -0.019922396 0.10359646 0.07039247 -0.073048785
0000e0 57 51 36 63 6b 30 df 69 23 46 6f a9 cc c5 97 9b
       0.11554989 0.10758094 0.07172062 0.13148782 0.14211309 0.06375167 -0.04382927 0.13945676 0.046485588 0.092971176 0.14742573 -0.11554989 -0.069064304 -0.07836142 -0.13945676 -0.13414413
0000f0 13 d4 04 3f 9f 36 c0 e6 9f 0c ac c8 0e bd 46 42
       0.025235035 -0.058439028 0.005312639 0.08367406 -0.12883149 0.07172062 -0.08500222 -0.034532152 -0.12883149 0.015937917 -0.11156542 -0.07437694 0.018594235 -0.0889867 0.092971176 0.08765854

sequential/conv2d_2/Conv2D i1 [64, 3, 3, 64]
000000 c4 f0 3f 5e 20 53 30 49 21 ec 2b 1c f7 11 f0 63
       -60 -16 63 94 32 83 48 73 33 -20 43 28 -9 17 -16 99
000010 44 ab 35 cf 0d 12 97 bd 52 05 c3 e0 5c c9 57 1f
       68 -85 53 -49 13 18 -105 -67 82 5 -61 -32 92 -55 87 31
000020 49 07 b6 5c 35 97 45 14 a0 bb e3 b6 31 ba b7 4c
       73 7 -74 92 53 -105 69 20 -96 -69 -29 -74 49 -70 -73 76
000030 af 2f f7 12 6d e7 e6 f1 c2 42 c4 ef d6 a8 53 a7
       -81 47 -9 18 109 -25 -26 -15 -62 66 -60 -17 -42 -88 83 -89
000040 95 09 a8 cf 05 29 19 9c 9e fe 1e 51 46 e3 1d 3c
       -107 9 -88 -49 5 41 25 -100 -98 -2 30 81 70 -29 29 60
000050 c9 9b 0b 64 62 54 f5 69 22 de d7 81 32 f3 f5 00
       -55 -101 11 100 98 84 -11 105 34 -34 -41 -127 50 -13 -11 0
000060 14 72 d1 f9 fd d6 b4 1d f1 3b 1d 4b fe c0 de fc
       20 114 -47 -7 -3 -42 -76 29 -15 59 29 75 -2 -64 -34 -4
000070 ba e8 51 d3 5b 5f 14 fd 5c a3 db 14 9a 38 5e b9
       -70 -24 81 -45 91 95 20 -3 92 -93 -37 20 -102 56 94 -71
000080 98 31 f3 e2 f3 bc f3 d1 2f e5 13 60 4c ec d5 d6
       -104 49 -13 -30 -13 -68 -13 -47 47 -27 19 96 76 -20 -43 -42
000090 53 c9 8a 00 05 f7 a4 f3 27 01 28 cb b8 c2 cf 1e
       83 -55 -118 0 5 -9 -92 -13 39 1 40 -53 -72 -62 -49 30
0000a0 d1 4a bd f1 cb 01 d5 c1 c4 19 9e 20 ca 0c 10 fd
       -47 74 -67 -15 -53 1 -43 -63 -60 25 -98 32 -54 12 16 -3
0000b0 d7 54 ce cb b3 c8 17 4e 26 31 f4 21 dd 57 c1 cb
       -41 84 -50 -53 -77 -56 23 78 38 49 -12 33 -35 87 -63 -53
0000c0 c2 40 1b 09 f0 ab 18 28 60 a5 ab ae c7 fa e8 1f
       -62 64 27 9 -16 -85 24 40 96 -91 -85 -82 -57 -6 -24 31
0000d0 47 ae 13 d1 bf 2a 32 0f c7 c9 e6 1c 15 f0 45 fe
       71 -82 19 -47 -65 42 50 15 -57 -55 -26 28 21 -16 69 -2
0000e0 e2 ac d5 f2 31 4f 0d bb ea b7 42 df a8 c8 fc 94
       -30 -84 -43 -14 49 79 13 -69 -22 -73 66 -33 -88 -56 -4 -108
0000f0 bf bb 1e 0c 62 55 4a d8 bd 2c c2 de 49 5c b7 ea
       -65 -69 30 12 98 85 74 -40 -67 44 -62 -34 73 92 -73 -22

sequential/conv2d_1/Conv2D i1 [64, 3, 3, 64]
000000 d7 58 24 03 9e e2 b6 dc 4f 0b 0b 29 05 21 63 1a
       -41 88 36 3 -98 -30 -74 -36 79 11 11 41 5 33 99 26
000010 0e 5e ca 4a ba a3 cb dc 71 e0 4e 2e 0c a4 64 6b
       14 94 -54 74 -70 -93 -53 -36 113 -32 78 46 12 -92 100 107
000020 a8 19 da d3 ca 18 b0 34 e5 52 51 dc 2c ac 9e 56
       -88 25 -38 -45 -54 24 -80 52 -27 82 81 -36 44 -84 -98 86
000030 b0 e6 18 ec cb 23 da 57 cf 46 57 f8 ef 4d 27 e7
       -80 -26 24 -20 -53 35 -38 87 -49 70 87 -8 -17 77 39 -25
000040 59 bc 0b 93 ca 97 f4 d9 e2 2b d5 e5 20 d5 98 0d
       89 -68 11 -109 -54 -105 -12 -39 -30 43 -43 -27 32 -43 -104 13
000050 37 d6 56 62 cc fe a7 ae d7 4a 66 da e0 f5 1b 5b
       55 -42 86 98 -52 -2 -89 -82 -41 74 102 -38 -32 -11 27 91
000060 62 6d 0c 5d 5f e6 11 bf c2 ac 27 38 c7 7b 5a 2a
       98 109 12 93 95 -26 17 -65 -62 -84 39 56 -57 123 90 42
000070 54 41 ca c6 ad 6e 65 e8 1f ce c0 10 e0 10 a9 c4
       84 65 -54 -58 -83 110 101 -24 31 -50 -64 16 -32 16 -87 -60
000080 d4 e0 7f ee 33 54 40 d9 61 dc b7 e7 3e ca 0e e6
       -44 -32 127 -18 51 84 64 -39 97 -36 -73 -25 62 -54 14 -26
000090 44 5b 00 67 13 17 d9 15 a5 55 1c 5d 06 0c 1b c6
       68 91 0 103 19 23 -39 21 -91 85 28 93 6 12 27 -58
0000a0 4b 19 44 39 aa ff e2 da c7 11 fe 1a 38 58 54 2e
       75 25 68 57 -86 -1 -30 -38 -57 17 -2 26 56 88 84 46
0000b0 e9 35 50 c0 f6 21 fb d4 d2 11 a9 4d fc 9e dd 26
       -23 53 80 -64 -10 33 -5 -44 -46 17 -87 77 -4 -98 -35 38
0000c0 37 2d 32 e2 29 bc 56 e9 1b 15 24 19 e1 4d 96 bc
       55 45 50 -30 41 -68 86 -23 27 21 36 25 -31 77 -106 -68
0000d0 25 e5 00 ce fd 46 a1 4d 34 a9 38 52 c5 b3 56 eb
       37 -27 0 -50 -3 70 -95 77 52 -87 56 82 -59 -77 86 -21
0000e0 4f 10 40 19 5a ff cb 15 0c 67 4e 70 4c 16 3f 3d
       79 16 64 25 90 -1 -53 21 12 103 78 112 76 22 63 61
0000f0 ba 1c 65 be d8 09 b2 b8 f9 ed 96 9f ff 4f 45 4f
       -70 28 101 -66 -40 9 -78 -72 -7 -19 -106 -97 -1 79 69 79

sequential/conv2d/Conv2D i1 [64, 3, 3, 4]
000000 62 4f cb d1 15 14 1a a6 b3 d1 91 f3 cf 9e 4f 66
       98 79 -53 -47 21 20 26 -90 -77 -47 -111 -13 -49 -98 79 102
000010 de 1e 4f 76 e0 60 67 0e 3a 08 cb bf c5 81 69 99
       -34 30 79 118 -32 96 103 14 58 8 -53 -65 -59 -127 105 -103
000020 d9 d8 9f 97 48 b0 15 f1 2b 21 2e 3f fb 5b 5f 00
       -39 -40 -97 -105 72 -80 21 -15 43 33 46 63 -5 91 95 0
000030 2f 59 57 a4 34 f6 24 69 02 da 3c a6 b7 32 bf d8
       47 89 87 -92 52 -10 36 105 2 -38 60 -90 -73 50 -65 -40
000040 a2 ce 81 48 aa fc fa b6 e4 a7 de b6 d6 b9 2a 09
       -94 -50 -127 72 -86 -4 -6 -74 -28 -89 -34 -74 -42 -71 42 9
000050 7f 4f 16 2c c3 e2 b6 75 7a 22 06 34 bf ce d8 cb
       127 79 22 44 -61 -30 -74 117 122 34 6 52 -65 -50 -40 -53
000060 39 a0 d8 08 70 0c 6f 7d 50 ae e3 16 52 2f 07 1a
       57 -96 -40 8 112 12 111 125 80 -82 -29 22 82 47 7 26
000070 46 b4 b4 85 b5 f6 f8 dc 9a 2a 81 52 ab 81 43 8e
       70 -76 -76 -123 -75 -10 -8 -36 -102 42 -127 82 -85 -127 67 -114
000080 b0 19 38 3e d4 8a 37 1d 47 a5 13 8e f9 38 0f 62
       -80 25 56 62 -44 -118 55 29 71 -91 19 -114 -7 56 15 98
000090 c6 19 d8 24 05 f9 5e 0a a5 b2 c5 60 86 84 81 36
       -58 25 -40 36 5 -7 94 10 -91 -78 -59 96 -122 -124 -127 54
0000a0 8f 25 cb 27 f4 e4 72 ee 5c 9c 40 44 04 5d 2f b6
       -113 37 -53 39 -12 -28 114 -18 92 -100 64 68 4 93 47 -74
0000b0 1c ed 74 ce 0e e8 d6 53 01 1f 8f 8f cf 9a 81 82
       28 -19 116 -50 14 -24 -42 83 1 31 -113 -113 -49 -102 -127 -126
0000c0 ba 94 a1 b6 b4 3f 1f a2 cd 0f 9d e8 fe 79 6c 99
       -70 -108 -95 -74 -76 63 31 -94 -51 15 -99 -24 -2 121 108 -103
0000d0 df 61 c5 ab 55 29 85 e1 cb 56 a2 c4 b1 87 94 df
       -33 97 -59 -85 85 41 -123 -31 -53 86 -94 -60 -79 -121 -108 -33
0000e0 62 5b 7f 67 61 7b b3 f3 fb 49 e8 3b 53 a3 eb 5e
       98 91 127 103 97 123 -77 -13 -5 73 -24 59 83 -93 -21 94
0000f0 51 cb 16 02 6c c6 69 c9 c4 9a a1 16 11 b0 77 22
       81 -53 22 2 108 -58 105 -55 -60 -102 -95 22 17 -80 119 34
